…
0x102355150>, '_vec_normalize_env': None, 'observation_space': Box(0.0, 1.0, (1, 101, 101), float64), 'action_space': Discrete(100), 'n_envs': 8, 'n_steps': 256, 'gamma': 0.99, 'gae_lambda': 0.95, 'ent_coef': 0.0, 'vf_coef': 0.5, 'max_grad_norm': 0.5, 'batch_size': 2048, 'n_epochs': 10, 'clip_range': <function constant_fn.<locals>.func at 0x282df28c0>, 'clip_range_vf': None, 'normalize_advantage': True, 'target_kl': None, 'lr_schedule': <function constant_fn.<locals>.func at 0x282df09d0>, 'policy': MaskableActorCriticCnnPolicy(
  (features_extractor): CustomCNN(
    (cnn): Sequential(
      (0): Conv2d(1, 4, kernel_size=(8, 8), stride=(4, 4))
      (1): ReLU()
      (2): Conv2d(4, 8, kernel_size=(4, 4), stride=(2, 2))
      (3): ReLU()
      (4): Flatten(start_dim=1, end_dim=-1)
    )
    (linear): Sequential(
      (0): Linear(in_features=968, out_features=128, bias=True)
      (1): ReLU()
    )
  )
  (pi_features_extractor): CustomCNN(
    (cnn): Sequential(
      (0): Conv2d(1, 4, kernel_size=(8, 8), stride=(4, 4))
      (1): ReLU()
      (2): Conv2d(4, 8, kernel_size=(4, 4), stride=(2, 2))
      (3): ReLU()
      (4): Flatten(start_dim=1, end_dim=-1)
    )
    (linear): Sequential(
      (0): Linear(in_features=968, out_features=128, bias=True)
      (1): ReLU()
    )
  )
  (vf_features_extractor): CustomCNN(
    (cnn): Sequential(
      (0): Conv2d(1, 4, kernel_size=(8, 8), stride=(4, 4))
      (1): ReLU()
      (2): Conv2d(4, 8, kernel_size=(4, 4), stride=(2, 2))
      (3): ReLU()
      (4): Flatten(start_dim=1, end_dim=-1)
    )
    (linear): Sequential(
      (0): Linear(in_features=968, out_features=128, bias=True)
      (1): ReLU()
    )
  )
  (mlp_extractor): MlpExtractor(
    (policy_net): Sequential(
      (0): Linear(in_features=128, out_features=64, bias=True)
      (1): Tanh()
      (2): Linear(in_features=64, out_features=64, bias=True)
      (3): Tanh()
    )
    (value_net): Sequential(
      (0): Linear(in_features=128, out_features=64, bias=True)
      (1): Tanh()
      (2): Linear(in_features=64, out_features=64, bias=True)
      (3): Tanh()
    )
  )
  (action_net): Linear(in_features=64, out_features=100, bias=True)
  (value_net): Linear(in_features=64, out_features=1, bias=True)
), 'rollout_buffer': <sb3_contrib.common.maskable.buffers.MaskableRolloutBuffer object at 0x282e78490>} 

INFO - root :
Before training :
 mean, std = 0.8400624990463257, 0.02484377659857273 

