…
lip_range': <function constant_fn.<locals>.func at 0x2840264d0>, 'clip_range_vf': None, 'normalize_advantage': True, 'target_kl': None, 'lr_schedule': <function constant_fn.<locals>.func at 0x284026440>, 'policy': MaskableActorCriticPolicy(
  (features_extractor): FlattenExtractor(
    (flatten): Flatten(start_dim=1, end_dim=-1)
  )
  (pi_features_extractor): FlattenExtractor(
    (flatten): Flatten(start_dim=1, end_dim=-1)
  )
  (vf_features_extractor): FlattenExtractor(
    (flatten): Flatten(start_dim=1, end_dim=-1)
  )
  (mlp_extractor): MlpExtractor(
    (policy_net): Sequential(
      (0): Linear(in_features=4016, out_features=2048, bias=True)
      (1): ReLU()
      (2): Linear(in_features=2048, out_features=2048, bias=True)
      (3): ReLU()
      (4): Linear(in_features=2048, out_features=1024, bias=True)
      (5): ReLU()
      (6): Linear(in_features=1024, out_features=512, bias=True)
      (7): ReLU()
    )
    (value_net): Sequential(
      (0): Linear(in_features=4016, out_features=2048, bias=True)
      (1): ReLU()
      (2): Linear(in_features=2048, out_features=2048, bias=True)
      (3): ReLU()
      (4): Linear(in_features=2048, out_features=1024, bias=True)
      (5): ReLU()
      (6): Linear(in_features=1024, out_features=512, bias=True)
      (7): ReLU()
    )
  )
  (action_net): Linear(in_features=512, out_features=1000, bias=True)
  (value_net): Linear(in_features=512, out_features=1, bias=True)
), 'rollout_buffer': <sb3_contrib.common.maskable.buffers.MaskableRolloutBuffer object at 0x285b3ca60>} 

INFO - root :
Before training :
 mean, std = 0.36807507276535034, 0.006500833667814732 

INFO - root :
After training :
 mean, std = 0.4469176232814789, 0.0011953354114666581 

