…
lip_range': <function constant_fn.<locals>.func at 0x1638f4790>, 'clip_range_vf': None, 'normalize_advantage': True, 'target_kl': None, 'lr_schedule': <function constant_fn.<locals>.func at 0x163876950>, 'policy': MaskableActorCriticPolicy(
  (features_extractor): FlattenExtractor(
    (flatten): Flatten(start_dim=1, end_dim=-1)
  )
  (pi_features_extractor): FlattenExtractor(
    (flatten): Flatten(start_dim=1, end_dim=-1)
  )
  (vf_features_extractor): FlattenExtractor(
    (flatten): Flatten(start_dim=1, end_dim=-1)
  )
  (mlp_extractor): MlpExtractor(
    (policy_net): Sequential(
      (0): Linear(in_features=283, out_features=2048, bias=True)
      (1): ReLU()
      (2): Linear(in_features=2048, out_features=2048, bias=True)
      (3): ReLU()
      (4): Linear(in_features=2048, out_features=1024, bias=True)
      (5): ReLU()
      (6): Linear(in_features=1024, out_features=256, bias=True)
      (7): ReLU()
      (8): Linear(in_features=256, out_features=128, bias=True)
      (9): ReLU()
    )
    (value_net): Sequential(
      (0): Linear(in_features=283, out_features=2048, bias=True)
      (1): ReLU()
      (2): Linear(in_features=2048, out_features=2048, bias=True)
      (3): ReLU()
      (4): Linear(in_features=2048, out_features=1024, bias=True)
      (5): ReLU()
      (6): Linear(in_features=1024, out_features=256, bias=True)
      (7): ReLU()
      (8): Linear(in_features=256, out_features=128, bias=True)
      (9): ReLU()
    )
  )
  (action_net): Linear(in_features=128, out_features=50, bias=True)
  (value_net): Linear(in_features=128, out_features=1, bias=True)
), 'rollout_buffer': <sb3_contrib.common.maskable.buffers.MaskableRolloutBuffer object at 0x16388a1a0>} 

INFO - root :
Before training :
 mean, std = -38.20000076293945, 3.346640110015869 

INFO - root :
After training :
 mean, std = -38.5, 2.41867733001709 

